…
unhandled obj:, and id: 23249319183360
process last instruction done
tracing opcode IS_OP None pc=140 frame=0(0x6ada940)
unhandled obj:, and id: 23249319183360
process last instruction done
tracing opcode POP_JUMP_IF_FALSE None pc=142 frame=0(0x6ada940)
unhandled obj:, and id: 23249319100832
process last instruction done
tracing line in /home/drc/frontend/test/simple.py
tracing opcode LOAD_FAST None pc=144 frame=0(0x6ada940)
process last instruction done
tracing opcode LOAD_ATTR None pc=146 frame=0(0x6ada940)
unhandled obj:, and id: 23246338774976
process last instruction done
attr value: BartEncoder(
  (embed_tokens): Embedding(50265, 768, padding_idx=1)
  (embed_positions): BartLearnedPositionalEmbedding(1026, 768)
  (layers): ModuleList(
    (0-5): 6 x BartEncoderLayer(
      (self_attn): BartAttention(
        (k_proj): Linear(in_features=768, out_features=768, bias=True)
        (v_proj): Linear(in_features=768, out_features=768, bias=True)
        (q_proj): Linear(in_features=768, out_features=768, bias=True)
        (out_proj): Linear(in_features=768, out_features=768, bias=True)
      )
      (self_attn_layer_norm): LayerNorm((768,), eps=1e-05, elementwise_affine=True)
      (activation_fn): GELUActivation()
      (fc1): Linear(in_features=768, out_features=3072, bias=True)
      (fc2): Linear(in_features=3072, out_features=768, bias=True)
      (final_layer_norm): LayerNorm((768,), eps=1e-05, elementwise_affine=True)
    )
  )
  (layernorm_embedding): LayerNorm((768,), eps=1e-05, elementwise_affine=True)
), and type: <class '__main__.BartEncoder'>, and id: 23246338775072
tracing line in /home/drc/frontend/test/simple.py
tracing opcode LOAD_FAST None pc=148 frame=0(0x6ada940)
unhandled obj:, and id: 23246338775072
from partial created
process last instruction done
tracing line in /home/drc/frontend/test/simple.py
tracing opcode LOAD_FAST None pc=150 frame=0(0x6ada940)
…
tracing opcode EXTENDED_ARG None pc=312 frame=2(0x84148d0)
unhandled obj:, and id: 23249319100864
process last instruction done
tracing line in /home/drc/frontend/test/simple.py
tracing opcode LOAD_GLOBAL None pc=376 frame=2(0x84148d0)
process last instruction done
tracing opcode LOAD_FAST None pc=378 frame=2(0x84148d0)
unhandled obj:, and id: 23249319120032
process last instruction done
tracing opcode LOAD_ATTR None pc=380 frame=2(0x84148d0)
unhandled obj:, and id: 23246338775072
process last instruction done
attr value: ModuleList(
  (0-5): 6 x BartEncoderLayer(
    (self_attn): BartAttention(
      (k_proj): Linear(in_features=768, out_features=768, bias=True)
      (v_proj): Linear(in_features=768, out_features=768, bias=True)
      (q_proj): Linear(in_features=768, out_features=768, bias=True)
      (out_proj): Linear(in_features=768, out_features=768, bias=True)
    )
    (self_attn_layer_norm): LayerNorm((768,), eps=1e-05, elementwise_affine=True)
    (activation_fn): GELUActivation()
    (fc1): Linear(in_features=768, out_features=3072, bias=True)
    (fc2): Linear(in_features=3072, out_features=768, bias=True)
    (final_layer_norm): LayerNorm((768,), eps=1e-05, elementwise_affine=True)
  )
), and type: <class 'torch.nn.modules.container.ModuleList'>, and id: 23246338775312
tracing opcode CALL_FUNCTION None pc=382 frame=2(0x84148d0)
unhandled obj:, and id: 23246338775312
from partial created
process last instruction done
tracing opcode GET_ITER None pc=384 frame=2(0x84148d0)
unhandled obj:, and id: 23246302830336
from partial created
in any, id is 23246302830336
…
