…
tracing line /home/drc/frontend/test/test_model_deberta.py:986
tracing opcode LOAD_FAST None pc=240 frame=0(0x7dd9b30)
tracing line /home/drc/frontend/test/test_model_deberta.py:987
tracing opcode LOAD_FAST None pc=242 frame=0(0x7dd9b30)
tracing line /home/drc/frontend/test/test_model_deberta.py:982
tracing opcode LOAD_CONST None pc=244 frame=0(0x7dd9b30)
tracing opcode CALL_FUNCTION_KW None pc=246 frame=0(0x7dd9b30)
run into user defined function DebertaEncoder(
  (layer): ModuleList(
    (0-11): 12 x DebertaLayer(
      (attention): DebertaAttention(
        (self): DisentangledSelfAttention(
          (in_proj): Linear(in_features=768, out_features=2304, bias=False)
          (pos_dropout): StableDropout()
          (pos_proj): Linear(in_features=768, out_features=768, bias=False)
          (pos_q_proj): Linear(in_features=768, out_features=768, bias=True)
          (dropout): StableDropout()
        )
        (output): DebertaSelfOutput(
          (dense): Linear(in_features=768, out_features=768, bias=True)
          (LayerNorm): DebertaLayerNorm()
          (dropout): StableDropout()
        )
      )
      (intermediate): DebertaIntermediate(
        (dense): Linear(in_features=768, out_features=3072, bias=True)
        (intermediate_act_fn): GELUActivation()
      )
      (output): DebertaOutput(
        (dense): Linear(in_features=3072, out_features=768, bias=True)
        (LayerNorm): DebertaLayerNorm()
        (dropout): StableDropout()
      )
    )
  )
  (rel_embeddings): Embedding(1024, 768)
)
preprocess frame /home/drc/frontend/test/test_model_deberta.py 4 0x7df2210 forward
new bytecode: 

0: [33mLOAD_FAST[0m(0, self) 
1: [33mLOAD_METHOD[0m(0, get_attention_mask) 
2: [33mLOAD_FAST[0m(2, attention_mask) 
3: [33mCALL_METHOD[0m(1, 1) 
4: [33mSTORE_FAST[0m(2, attention_mask) 
5: [33mLOAD_FAST[0m(0, self) 
6: [33mLOAD_METHOD[0m(1, get_rel_pos) 
7: [33mLOAD_FAST[0m(1, hidden_states) 
…
tracing opcode LOAD_FAST None pc=186 frame=4(0x7de0fc0)
tracing line /home/drc/frontend/test/test_model_deberta.py:480
tracing opcode LOAD_FAST None pc=188 frame=4(0x7de0fc0)
tracing line /home/drc/frontend/test/test_model_deberta.py:481
tracing opcode LOAD_DEREF None pc=190 frame=4(0x7de0fc0)
tracing line /home/drc/frontend/test/test_model_deberta.py:475
tracing opcode LOAD_CONST None pc=192 frame=4(0x7de0fc0)
tracing opcode CALL_FUNCTION_KW None pc=194 frame=4(0x7de0fc0)
run into user defined function DebertaLayer(
  (attention): DebertaAttention(
    (self): DisentangledSelfAttention(
      (in_proj): Linear(in_features=768, out_features=2304, bias=False)
      (pos_dropout): StableDropout()
      (pos_proj): Linear(in_features=768, out_features=768, bias=False)
      (pos_q_proj): Linear(in_features=768, out_features=768, bias=True)
      (dropout): StableDropout()
    )
    (output): DebertaSelfOutput(
      (dense): Linear(in_features=768, out_features=768, bias=True)
      (LayerNorm): DebertaLayerNorm()
      (dropout): StableDropout()
    )
  )
  (intermediate): DebertaIntermediate(
    (dense): Linear(in_features=768, out_features=3072, bias=True)
    (intermediate_act_fn): GELUActivation()
  )
  (output): DebertaOutput(
    (dense): Linear(in_features=3072, out_features=768, bias=True)
    (LayerNorm): DebertaLayerNorm()
    (dropout): StableDropout()
  )
)
preprocess frame /home/drc/frontend/test/test_model_deberta.py 9 0x7de1420 forward
new bytecode: 

0: [33mLOAD_FAST[0m(0, self) 
1: [33mLOAD_ATTR[0m(0, attention) 
2: [33mLOAD_FAST[0m(1, hidden_states) 
3: [33mLOAD_FAST[0m(2, attention_mask) 
4: [33mLOAD_FAST[0m(6, output_attentions) 
…
